HeartDiseasePredictionModel.pth (torch, 6071 bytes, 5 tensors)

layer_1.weight f4 [26, 13]
000000 7a e9 24 3e ff 4c 67 be 9b 66 81 bd 69 b5 a7 be
       0.16104689 -0.22587965 -0.063183986 -0.32755592
000010 ad ec 3c be f1 00 c0 3d c8 40 38 be ba b1 8a 3e
       -0.1844966 0.093751796 -0.17993462 0.2708872
000020 89 70 df 3b 93 b2 2f 3d 73 a7 f9 3d 67 ce 9c be
       0.006818835 0.04289491 0.121901415 -0.30626222
000030 7c f8 28 be ee ee f8 bd c2 15 b6 be 7a c1 4e be
       -0.1650104 -0.12154947 -0.35563475 -0.20190993
000040 9a 6e 0a 3e 66 48 8d be 1c b7 2f 3e 74 1a 54 3e
       0.13518754 -0.27594298 0.17159694 0.20713216
000050 b5 ea a2 3e f9 89 32 be eb bc 64 be 41 c5 32 3e
       0.31819692 -0.17435445 -0.22337691 0.17458059
000060 d1 27 1f be 0e f1 93 be 3d ca 06 3e 7e e1 2b 3d
       -0.15542533 -0.28894848 0.13163085 0.041963093
000070 b7 02 b8 3e 3f 47 b9 3d 8e 21 25 be 20 af fd 3d
       0.3593957 0.09046792 -0.16126081 0.12386918
000080 45 ff 10 be 6c e3 23 3d 7f aa b8 3e e7 79 a8 3d
       -0.14159878 0.04001181 0.36067578 0.08226376
000090 20 03 90 3e ea 1d 99 3e 04 aa d0 bd 97 af c4 bd
       0.28127384 0.29905635 -0.10188678 -0.096038036
0000a0 dc 54 84 3e ea a4 aa 3e 3c 82 05 3e 27 99 bc 3d
       0.25845993 0.33328944 0.13037962 0.09208899
0000b0 68 c4 9c 3d be dd bc 3d c8 e6 a9 3d e2 78 b0 3d
       0.07654649 0.092219815 0.08295971 0.086168066
0000c0 9c 61 40 3e 9b d9 b5 3d 8f dc c8 3e 1a cd 89 3d
       0.18787235 0.088793956 0.39230773 0.06728573
0000d0 c8 e7 68 3c f8 8b f5 bd 9f 0e 16 3e c5 f5 64 3e
       0.014215417 -0.119895875 0.14654015 0.22359379
0000e0 7d 3b 87 3b ad 22 24 bd 58 66 29 bc 56 77 cd bc
       0.0041269646 -0.040072132 -0.010339342 -0.025081318
0000f0 3d 23 3e 3e 22 f5 4b 3e d4 6c 53 bc 10 48 37 3e
       0.1856813 0.1991773 -0.012904365 0.17898583
000100 47 a5 83 3e 38 18 43 bd 68 4a 56 3e 4f e0 55 be
       0.25712034 -0.04763052 0.20926821 -0.20886348
000110 89 c2 6f 3e da bc 67 3e b5 7f 9c be 6f 37 69 be
       0.23414053 0.22630635 -0.30566183 -0.22775052
000120 8a eb 18 be 80 bb 3b bd 18 ee 0f 3e a5 38 aa 3e
       -0.14933601 -0.04583311 0.1405567 0.3324634
000130 ba a4 9d 3e f4 1f 34 3e 0e 9d 9c be 5a 75 a2 be
       0.3078974 0.17590314 -0.30588573 -0.31730157
000140 5b 26 cd bc 3b 4e c8 bd bc 59 38 3e 00 c9 3b 3e
       -0.025042703 -0.09780546 0.18002981 0.18338394
000150 f5 ac 01 3e 8c df 06 be 7d 51 a0 be 69 5d 92 bd
       0.12663634 -0.13171214 -0.3131217 -0.07146723
000160 0b 35 2a 3e 23 c5 74 3d 1e a9 7c be 37 b8 12 be
       0.16621797 0.059758317 -0.24673888 -0.14328085
000170 18 89 33 be bc b6 5e 3e d3 b9 6f 3d 19 59 1c 3e
       -0.17532766 0.21749395 0.058526825 0.15268363
000180 f3 90 41 3e 43 08 a3 3e 1c 39 4a be ff 18 1a 3e
       0.1890295 0.3184224 -0.19748348 0.15048598
000190 b5 9e 74 3e 43 b4 a2 3e 90 7e ae 3e c6 53 ae bd
       0.23888667 0.31778154 0.34080935 -0.08512072
0001a0 02 44 29 3e 68 48 05 3b 8c 7a 53 be 8b e2 f4 bc
       0.16529849 0.0020337347 -0.20652217 -0.02989318
0001b0 7c d8 8d be a9 05 51 3e 09 c5 99 be c4 e2 42 be
       -0.27704227 0.20412315 -0.30033138 -0.19031817
0001c0 59 54 48 be 7c f7 56 3b 79 b0 0d bd 8f 05 62 be
       -0.19563426 0.003280132 -0.034592126 -0.22072433
0001d0 c5 01 06 3d 6d 32 12 3e 97 b6 c7 3b f4 a9 90 3e
       0.03271653 0.14277048 0.0060947645 0.28254664
0001e0 de 7e 87 3d 07 0c d7 3d 39 54 2f 3e 62 d2 04 3e
       0.06615995 0.10500341 0.17121972 0.1297088
0001f0 32 03 74 3d 5a 1c 93 3e 8d 06 a5 3e de 9d 8c bc
       0.05957336 0.28732568 0.3223156 -0.01716512
000200 88 db 43 3e 26 7f 3a 3e d5 a1 89 3e a9 03 13 bd
       0.19126713 0.18212566 0.2688128 -0.035892162
000210 b2 da ae 3e 8d 48 23 be 28 28 05 bd 27 76 ef 3d
       0.34151226 -0.15945645 -0.032509 0.11692458
000220 cd fe 37 3e 9c c1 a3 be 8d b7 83 3d 96 c8 cf 3d
       0.17968293 -0.3198365 0.06431494 0.101456806
000230 0f 29 b1 3e 8d 88 9e 3c 2c b1 a0 3d a4 31 6d 3e
       0.34601638 0.019352222 0.07846293 0.23163468
000240 bb 24 28 bd 23 8e 90 3e 3c e5 44 3e 79 9e 37 3e
       -0.041050654 0.28233442 0.19228071 0.17931546
000250 71 84 0b be d6 9a d7 bd 73 48 9b be e5 a0 30 3e
       -0.13624741 -0.105275795 -0.30328712 0.17248876
000260 4b e8 01 3c 6e 46 0b 3d 0b 88 6e 3e 16 a3 3f 3e
       0.007928918 0.034002714 0.23294084 0.18714556
000270 dd b9 63 3e 61 60 87 3e b4 08 cf bd 3d 15 59 3e
       0.2223887 0.2644072 -0.10109082 0.21199508
000280 52 04 24 3d 78 66 a5 3d f5 62 21 be 27 89 38 bd
       0.040043183 0.08076185 -0.15760405 -0.045052674
000290 d1 ea 0b be 4d ea ca 3d 68 2a 64 3e 7c 43 01 3e
       -0.13663794 0.099079706 0.22281802 0.126234
0002a0 9a ca 1e 3e 94 98 ab 3d 34 e5 5b 3e bb 2d be bd
       0.15506974 0.08378711 0.21474153 -0.09286066
0002b0 7e 2a 9f 3e 38 3c 68 3d 39 9d 9c be b9 00 20 3e
       0.31087106 0.056698054 -0.305887 0.15625276
0002c0 89 06 99 be 3a 3e b3 bd d2 06 3f 3c ca bd 94 bd
       -0.29887798 -0.08752103 0.011659341 -0.07262762
0002d0 bf 98 6a 3e a6 84 1a 3e 8d d1 85 bd 94 55 96 3e
       0.2290983 0.15089664 -0.06534109 0.29362166
0002e0 57 78 95 be 97 af 4f be 71 99 21 be be cd 6b be
       -0.29193375 -0.20281826 -0.1578119 -0.23027703
0002f0 9c 9d 72 3e 53 c9 93 3d f3 e7 6d be 4f c8 ec 3d
       0.23692936 0.07216134 -0.23233013 0.11561643
000300 c1 81 be bd d3 ff cb 3d b5 08 c3 3e 03 44 a3 be
       -0.09302092 0.09960904 0.3809258 -0.31887826
000310 ed f3 24 3e 15 91 ff 3d 72 99 52 3e fc 19 02 3e
       0.16108675 0.12478844 0.20566347 0.12705225
000320 df 06 9a 3e 08 f8 c5 3d 57 e3 71 3e 11 39 19 be
       0.30083367 0.09666449 0.2362188 -0.14963175
000330 7c 6d d0 3d 76 24 11 3e 14 67 45 bd 83 04 12 bd
       0.101771325 0.14174065 -0.048194006 -0.035648834
000340 bb 86 ab be 9f 4a a4 be 61 d9 86 be 33 59 ef 3d
       -0.3350123 -0.3208818 -0.26337722 0.11686935
000350 90 30 c2 bd d0 57 42 3c 5c 5b 8a be 31 45 f4 bd
       -0.09481919 0.011861756 -0.27022827 -0.1192726
000360 28 7e 14 bd 7d 80 e4 bc 5d 6d 73 be 56 74 b6 3d
       -0.036253124 -0.0278933 -0.23772188 0.08908908
000370 fa 15 85 be 0f e7 ec 3d 07 83 d3 bd d1 4d 17 3e
       -0.2599333 0.115675084 -0.10327726 0.14775778
000380 c2 e7 4e be 87 bf 44 3d 70 68 cc 3d e8 df c0 be
       -0.20205596 0.048034217 0.09980857 -0.37670827
000390 b0 4b e5 bd ab 3d a6 be a1 8e a1 3b 0c 52 42 be
       -0.11196077 -0.32468924 0.004930333 -0.18976611
0003a0 42 da 35 be c7 d8 0f be 9a 7b 1d 3d 0c 58 bb 3d
       -0.1775904 -0.14047538 0.038447954 0.09147653
0003b0 d4 b8 41 3e 7c e8 7f 3e 92 6a 09 bd da 7e 8d be
       0.18918163 0.2499103 -0.0335489 -0.27635843
0003c0 24 4d 4b 3d 78 b1 90 be f3 86 d1 bd 40 19 28 bd
       0.049634114 -0.28260398 -0.10230818 -0.041039705
0003d0 ca 7e 4a be 48 b8 6d 3d a1 df 77 3e ce 34 8b 3e
       -0.19774929 0.058037072 0.24206401 0.27188724
0003e0 66 bc c5 3e 65 f9 33 be 9b 34 a5 3c ef 93 36 3e
       0.386203 -0.17575605 0.020166686 0.1782987
0003f0 ec 88 49 3e f2 34 6c 3e 7e 14 5a be 34 b1 9e 3e
       0.19681138 0.23067072 -0.2129688 0.3099457

layer_1.bias f4 [26]
000000 fe 59 93 3c 35 30 c5 3e d3 a1 05 3e b8 71 5f bd
       0.017987248 0.38513342 0.13050012 -0.05455181
000010 4d 18 9d 3c c5 0c 98 3e b1 9c 49 bd 19 90 72 3e
       0.019176627 0.29697242 -0.0492217 0.23687781
000020 09 94 98 3d a5 76 96 3e 22 66 60 be 9c 2a d6 bd
       0.074501105 0.29387394 -0.2191396 -0.10457346
000030 ca 64 59 3e bc ce 3c 3d 46 25 b6 bd d6 45 5d be
       0.21229854 0.046095595 -0.08893828 -0.21608672
000040 b4 39 95 3e 1c bb 27 3e 7c d2 22 bd b7 16 85 3e
       0.29145586 0.1637997 -0.039751515 0.25993893
000050 d3 61 a9 3e c2 c4 e8 bd 2b 62 c0 3e 51 96 21 3e
       0.33082446 -0.113656536 0.37574896 0.15779997
000060 21 72 1a be ea 46 c6 bc
       -0.15082599 -0.024203736

layer_2.weight f4 [20, 26]
000000 70 bf 97 3e 9f 5b 31 3e e4 f3 9b bb 2b 8e f7 3d
       0.29638243 0.17320107 -0.0047592986 0.12087663
000010 80 70 4b be 85 dd b0 bd 02 db 89 bc 25 a9 0f bd
       -0.19867134 -0.086360015 -0.016828064 -0.03507342
000020 67 44 2a 3d e1 a2 0e 3e 3c f0 8a bc 93 7e 7b 3a
       0.04156914 0.13929321 -0.016960256 0.0009593751
000030 4f 0c ce bc 0d a8 a0 bc 1e 41 95 be ff c1 f6 3d
       -0.025152354 -0.019611383 -0.29151243 0.120487206
000040 9d 98 0f 3e e1 92 d8 3d e0 34 cd 3d 02 ca 4c be
       0.14023061 0.1057489 0.10019851 -0.19998935
000050 97 a0 cb b8 79 ef 04 3e 7b a1 86 3e 01 42 87 3e
       -9.7097065e-05 0.12981977 0.26295075 0.26417544
000060 4d 75 6e bc af c9 6e 3e 60 b5 9f 3d d2 4c da bc
       -0.014554334 0.23319124 0.077982664 -0.026647959
000070 1e 22 90 bd 92 27 e4 3d 2b a9 07 3c 04 98 17 3d
       -0.07037757 0.1114036 0.008280079 0.037010208
000080 3f 07 88 3e 9c 88 88 3d c3 de 52 bd c2 71 70 3d
       0.26568028 0.06666681 -0.051481973 0.058702238
000090 c7 95 65 3d da 48 0b be 65 8c 79 be 7e d3 1c bd
       0.056051042 -0.1360201 -0.24369963 -0.038287632
0000a0 d6 c7 38 be d4 d2 fd 3d 10 b1 0f 3e 4c 31 9d 3e
       -0.18044981 0.12393728 0.14032388 0.30701673
0000b0 9b 9c 57 be ac d1 47 be 71 7e 70 3e 1f c0 ff 3d
       -0.21055834 -0.19513577 0.23485734 0.12487816
0000c0 16 37 46 3e 19 18 1c 3e f9 3a e1 3b 85 63 16 bc
       0.19356951 0.15243568 0.006873485 -0.009179001
0000d0 ae 52 23 3e 14 95 35 be 65 27 5f bc 7b bd 0b 3c
       0.15949509 -0.1773265 -0.013620232 0.008529062
0000e0 0a 38 13 bd 08 ef ea bd 9a a2 b1 bd f9 52 ca 3d
       -0.035942115 -0.11471373 -0.08673592 0.09879107
0000f0 c1 43 b9 3d 04 f7 bb bc 9d df 84 bd 1b 0c 2b bd
       0.09046126 -0.022944935 -0.06487963 -0.04175959
000100 86 51 b7 bd 1d 8d 35 be 1a 4b 04 3d 8e 07 3e be
       -0.08951096 -0.17729612 0.032298185 -0.1855757
000110 2f bd c2 3d 4f d1 3f bd 9d 33 9c bd 39 f7 ed 3d
       0.0950874 -0.04683047 -0.07627032 0.116194196
000120 f7 65 5a bd ff a1 5c 3e 3f bf 69 39 27 74 18 be
       -0.053319898 0.21546172 0.00022291856 -0.14888059
000130 9a 44 33 be 7e 62 3b be 6c 1d 45 3e f3 11 8d 3d
       -0.17506638 -0.1829929 0.19249505 0.06888189
000140 d4 51 0d bd 1f a7 3f be 3f e7 29 be 99 34 0b bb
       -0.034501866 -0.18716095 -0.1659212 -0.0021241067
000150 29 03 7f 3e 9c 95 6b 3e 17 07 f6 bc 6c eb 53 be
       0.24903549 0.2300629 -0.030032678 -0.20695275
000160 cd 12 7a 3e 21 3a 24 be b7 58 0b 3e bb 74 ad 3d
       0.24421234 -0.160378 0.13608061 0.0846953
000170 f3 6b 85 bd b2 76 6f 3e c8 41 e2 3c 77 24 5f 3d
       -0.0651473 0.23385122 0.027619258 0.054478135
000180 44 6f 16 be 38 a6 97 be 58 82 c6 bd 52 4b 28 bd
       -0.14690882 -0.29619002 -0.0969283 -0.041087456
000190 10 e7 04 3e 5d 60 02 3e b8 98 30 bd cd 72 58 3e
       0.12978768 0.12732072 -0.043114394 0.21137543
0001a0 41 ae 25 be 09 a2 8a be 01 9e 84 3e 03 13 55 3e
       -0.16179754 -0.27076748 0.25901797 0.20808034
0001b0 f8 6d c4 3b 0e e8 30 3e 57 77 9e bd 6c f3 86 bd
       0.0059945546 0.17276022 -0.07737606 -0.06589398
0001c0 0c 91 2e 3b cd 12 3d 3e 28 85 7b 3e c0 bc 90 3e
       0.0026636748 0.18464203 0.24562514 0.28269005
0001d0 8e 83 6c 3e f5 4e 89 3d c1 ff 6b bd a4 26 50 3c
       0.23097059 0.06704513 -0.057616953 0.012704525
0001e0 6c e8 45 3b a7 18 4f bd b0 b4 d6 bd 3b 29 8a 3e
       0.0030198349 -0.05056062 -0.10483682 0.2698458
0001f0 09 32 df 3c 47 26 7a 3d 8c de e4 3d 6e 9c f0 bd
       0.027245538 0.06107166 0.1117526 -0.117485866
000200 4f ab 56 3e bb e1 4a be 36 ab f2 3d a9 8d da 3d
       0.20963787 -0.19812672 0.11849062 0.10671551
000210 e5 82 e7 bd d6 38 02 be 93 ef 6c 3d 47 f7 ca bd
       -0.11304263 -0.12716994 0.057845663 -0.09910446
000220 77 4a 6a 3d f0 6d e4 bd 28 bd ab bb f0 46 02 bd
       0.05719992 -0.111537814 -0.005241055 -0.031805933
000230 64 7b 9d bc 8d 35 a2 3d b6 cd 94 bd 0e 00 60 bd
       -0.019223876 0.0792037 -0.07265799 -0.054687552
000240 37 fd 61 3d 7a bf 40 3e c5 41 6a bc b7 ad 72 bb
       0.055173125 0.18823043 -0.014297907 -0.0037029812
000250 e6 02 0d be 04 94 50 3e a8 b2 24 be e2 7c 49 3e
       -0.13770637 0.20368963 -0.16083777 0.19676545
000260 09 dc 8e 3d 37 41 31 3d 67 78 12 be 2c 39 8e be
       0.06975562 0.043275084 -0.14303742 -0.27777994
000270 4f e2 92 be 45 c0 34 3a 6b b4 90 3e 0b 9e 28 3e
       -0.28688285 0.00068951055 0.28262648 0.16466539
000280 c5 eb 09 3e cb 66 6d 3e 39 d3 02 3d cf d3 17 3e
       0.13468845 0.23183744 0.03193972 0.14826892
000290 69 1d d4 bc 9e 1d 1a 3e 40 32 b8 bd cf 69 ac 3d
       -0.02589293 0.1505036 -0.089939594 0.08418619
0002a0 ef 04 9c 3e ac 78 5f 3e 37 5d d1 3d f1 d7 69 bc
       0.30472514 0.21823376 0.102228574 -0.014272676
0002b0 b0 80 ea 3d 85 b4 c0 bd a4 c7 f3 bc 48 b4 44 3e
       0.114503264 -0.09409431 -0.029758282 0.19209397
0002c0 dc 6d 3e be 2e 86 0c be 19 60 a3 3d f9 63 28 3e
       -0.18596596 -0.1372306 0.079773135 0.16444387
0002d0 d5 b7 bd bd 39 f5 e8 bd 30 a7 ed 3d 16 c8 e2 3d
       -0.09263579 -0.113748975 0.11604154 0.110733196
0002e0 96 04 a9 bd e4 d4 35 be fd 48 c4 bd 3c 7f f3 3d
       -0.08252828 -0.17756993 -0.09584234 0.118895024
0002f0 5e fb db 3d b4 32 80 bd 73 67 13 3e 4a 0e af 3c
       0.10741304 -0.06259671 0.14394931 0.021369118
000300 d9 6a d9 bd 6f 33 d5 bc 55 e4 1c be 65 e8 25 be
       -0.10616083 -0.026025502 -0.15321477 -0.16201933
000310 0b 9a be bd e2 51 01 3e 13 d1 e6 bc 9b e0 8a 3d
       -0.09306725 0.12628892 -0.028175866 0.06781121
000320 04 17 fb bd 47 4b b0 3c ee c4 ef 3c 35 70 ef bb
       -0.12260249 0.02152027 0.029268708 -0.0073070773
000330 6c 33 11 3e b7 20 21 3e 57 34 ed bd de 63 c7 3d
       0.14179772 0.15735136 -0.11582249 0.09735845
000340 2d fb 70 be c0 87 16 be 29 95 95 3e a1 0e 8f 3e
       -0.23533316 -0.14700222 0.29215363 0.27940848
000350 14 a7 78 bd 9d a9 8b 3d da e5 6e bd 52 bc b3 3d
       -0.060706213 0.068194605 -0.058324672 0.087761536
000360 e3 00 93 3d b5 78 50 3e 1e 03 26 bd f2 47 44 3e
       0.071779035 0.20358546 -0.040530317 0.1916807
000370 fe c9 8c bd 81 71 6a 3e 60 a4 2b 3e a9 79 39 3e
       -0.068744645 0.22894861 0.16761923 0.18112816
000380 d7 32 24 bb eb b8 f2 3d af bd 1b 3d d3 8a 5c 3d
       -0.0025054717 0.118516766 0.038022693 0.05384333
000390 b2 32 b5 3b 84 5a 2b 3d 68 15 d5 bd 24 35 1c be
       0.005529725 0.04183437 -0.104044735 -0.15254647
0003a0 d2 23 62 3e dc d6 7a be 42 17 3a 3d c9 2c e4 3d
       0.22083977 -0.24496025 0.045432337 0.111413546
0003b0 42 40 41 3d 80 b1 37 bd ef 34 03 be 3b 93 28 3d
       0.04718042 -0.04484701 -0.12813161 0.041156035
0003c0 c7 10 87 3d 96 8c 04 3e 6a ee 88 bd be fd 60 be
       0.06594997 0.12944254 -0.06686099 -0.21971795
0003d0 96 db 0b be 7e 5c 16 3b 97 25 15 be d8 33 81 be
       -0.13657984 0.0022943313 -0.1456512 -0.25234866
0003e0 93 b8 10 be ce 83 58 3e 77 ea 4f 3c 93 5b 68 3e
       -0.1413291 0.2114403 0.012690178 0.22691183
0003f0 57 1a c6 3d fb 7b 69 3d c0 b5 f1 3d a3 cf 46 3d
       0.09672993 0.057003003 0.11802244 0.04853786

layer_2.bias f4 [20]
000000 b0 bd 8f bd 8d ad 98 bd e7 c1 3e 3c 2f 99 96 bd
       -0.07018602 -0.07454977 0.01164291 -0.07353436
000010 ba 1c 88 3d ad f2 4c 3c 15 ec 0c 3e 01 4c 63 3e
       0.06646104 0.01250903 0.13761933 0.22196962
000020 89 dc f1 3d b9 6e 2e 3d 46 45 fe 3d 12 4b 5a 3e
       0.11809642 0.042586062 0.124155566 0.213177
000030 2b 99 0d 3e b7 b6 46 3d 50 bc 90 3d 0c 2f 77 3e
       0.1382796 0.048514094 0.07067168 0.2413904
000040 4e 8e dc 3d a2 90 4e bd 65 1d 0d 3d 06 05 68 3c
       0.1076933 -0.0504309 0.03445186 0.014161354

layer_3.weight f4 [1, 20]
000000 d3 de 90 be c1 f5 8f be a0 5e f4 bd 3b e1 aa be
       -0.28295 -0.28117183 -0.11932111 -0.33374962
000010 44 57 8d 3e d1 4b a7 be dd 1d 79 3e b7 f3 5a be
       0.2760564 -0.3267503 0.24327798 -0.21382032
000020 19 2f 6d 3e 41 d9 9b be 21 22 82 be 21 8e 86 be
       0.23162498 -0.3043919 -0.25416663 -0.2628031
000030 68 6b 93 3e 17 8d 4f be 7f a8 4c be c1 6e 13 3e
       0.28792882 -0.20268665 -0.19986151 0.14397718
000040 b7 b2 4c 3e c1 c4 ca bd ea 1d f7 bd 41 90 2c 3e
       0.1999005 -0.09900809 -0.120662525 0.16851903
